#map = affine_map<(d0, d1, d2) -> (d0, d2)>
#map1 = affine_map<(d0, d1, d2) -> (d2, d1)>
#map2 = affine_map<(d0, d1, d2) -> (d0, d1)>
module attributes {aster.generated_mlir = "// Generated by air-to-aster pass from AIR IR analysis.\0A// Target: gfx942, ISA: cdna3\0A\0A!sx2 = !amdgcn.sgpr<[? + 2]>\0A!v   = !amdgcn.vgpr\0A!vx2 = !amdgcn.vgpr<[? + 2]>\0A!vx4 = !amdgcn.vgpr<[? + 4]>\0A!rt_A_f16 = !vx2\0A!rt_B_f16 = !vx2\0A!rt_C_f32 = !vx4\0A!write_token = !amdgcn.write_token<flat>\0A!future_global_read = !aster_utils.struct<value: !aster_utils.any, token: !amdgcn.read_token<flat>>\0A\0Aamdgcn.module @air_forward_module target = #amdgcn.target<gfx942> isa = #amdgcn.isa<cdna3> {\0A  func.func private @load_A_f16(!sx2, index, index, index) -> !future_global_read\0A  func.func private @get_A_f16(!future_global_read) -> !rt_A_f16\0A  func.func private @load_B_f16(!sx2, index, index, index) -> !future_global_read\0A  func.func private @get_B_f16(!future_global_read) -> !rt_B_f16\0A  func.func private @zero_C() -> !rt_C_f32\0A  func.func private @mfma_f32_16x16x16_f16(!rt_A_f16, !rt_B_f16, !rt_C_f32) -> !rt_C_f32\0A  func.func private @store_C_f32(!rt_C_f32, !sx2, index, index, index) -> !write_token\0A\0A  amdgcn.kernel @forward arguments <[\0A    #amdgcn.buffer_arg<address_space = generic, access = read_only>,\0A    #amdgcn.buffer_arg<address_space = generic, access = read_only>,\0A    #amdgcn.buffer_arg<address_space = generic, access = write_only>\0A  ]> attributes {shared_memory_size = 0 : i32} {\0A    %A_ptr = amdgcn.load_arg 0 : !sx2\0A    %B_ptr = amdgcn.load_arg 1 : !sx2\0A    %C_ptr = amdgcn.load_arg 2 : !sx2\0A    amdgcn.sopp.s_waitcnt #amdgcn.inst<s_waitcnt> lgkmcnt = 0\0A\0A    %c0 = arith.constant 0 : index\0A    %stride_f16 = arith.constant 32 : index\0A    %stride_f32 = arith.constant 64 : index\0A\0A    %A_future = func.call @load_A_f16(%A_ptr, %c0, %c0, %stride_f16) : (!sx2, index, index, index) -> !future_global_read\0A    %B_future = func.call @load_B_f16(%B_ptr, %c0, %c0, %stride_f16) : (!sx2, index, index, index) -> !future_global_read\0A\0A    %C = func.call @zero_C() : () -> !rt_C_f32\0A\0A    %A = func.call @get_A_f16(%A_future) : (!future_global_read) -> !rt_A_f16\0A    %B = func.call @get_B_f16(%B_future) : (!future_global_read) -> !rt_B_f16\0A\0A    %D = func.call @mfma_f32_16x16x16_f16(%A, %B, %C) : (!rt_A_f16, !rt_B_f16, !rt_C_f32) -> !rt_C_f32\0A\0A    %store_tok = func.call @store_C_f32(%D, %C_ptr, %c0, %c0, %stride_f32) : (!rt_C_f32, !sx2, index, index, index) -> !write_token\0A    amdgcn.wait deps %store_tok : !write_token\0A\0A    amdgcn.end_kernel\0A  }\0A}\0A"} {
  air.channel @channel_0 [1, 1]
  air.channel @channel_1 [1, 1]
  air.channel @channel_2 [1, 1]
  air.channel @channel_3 [1, 1]
  func.func @forward(%arg0: memref<16x16xf16>, %arg1: memref<16x16xf16>, %arg2: memref<16x16xf32>) {
    %c1 = arith.constant 1 : index
    %0 = air.launch async (%arg3, %arg4) in (%arg5=%c1, %arg6=%c1) args(%arg7=%arg0, %arg8=%arg1, %arg9=%arg2) : memref<16x16xf16>, memref<16x16xf16>, memref<16x16xf32> attributes {aster.block_dims = [64, 1, 1], aster.isa = "cdna3", aster.target = "gfx942", aster.wave_size = 64 : i64, id = 1 : i32} {
      %c0 = arith.constant 0 : index
      %1 = air.channel.put async  @channel_0[%c0, %c0] (%arg7[] [] []) : (memref<16x16xf16>)
      %2 = air.channel.put async  @channel_1[%c0, %c0] (%arg8[] [] []) : (memref<16x16xf16>)
      %3 = air.channel.put async  @channel_2[%c0, %c0] (%arg9[] [] []) : (memref<16x16xf32>)
      %4 = air.channel.get async  @channel_3[%c0, %c0] (%arg9[] [] []) : (memref<16x16xf32>)
      %5 = air.segment @seg_0 async  attributes {id = 2 : i32} {
        %c1_0 = arith.constant 1 : index
        %6 = air.herd @herd_0 async  tile (%arg10, %arg11) in (%arg12=%c1_0, %arg13=%c1_0) attributes {aster.wave_grid = [1, 1], aster.wave_size = 64 : i64, id = 3 : i32} {
          %async_token, %results = air.execute -> (memref<16x16xf16, 2>) {
            %alloc = memref.alloc() {aster.vgpr_candidate} : memref<16x16xf16, 2>
            air.execute_terminator %alloc : memref<16x16xf16, 2>
          }
          %async_token_1, %results_2 = air.execute -> (memref<16x16xf16, 2>) {
            %alloc = memref.alloc() {aster.vgpr_candidate} : memref<16x16xf16, 2>
            air.execute_terminator %alloc : memref<16x16xf16, 2>
          }
          %async_token_3, %results_4 = air.execute -> (memref<16x16xf32, 2>) {
            %alloc = memref.alloc() {aster.vgpr_candidate} : memref<16x16xf32, 2>
            air.execute_terminator %alloc : memref<16x16xf32, 2>
          }
          %7 = air.channel.get async [%async_token]  @channel_0[%arg10, %arg11] (%results[] [] []) : (memref<16x16xf16, 2>)
          %8 = air.channel.get async [%async_token_1]  @channel_1[%arg10, %arg11] (%results_2[] [] []) : (memref<16x16xf16, 2>)
          %9 = air.channel.get async [%async_token_3]  @channel_2[%arg10, %arg11] (%results_4[] [] []) : (memref<16x16xf32, 2>)
          %async_token_5 = air.execute [%9, %8, %7] {
            linalg.generic {indexing_maps = [#map, #map1, #map2], iterator_types = ["parallel", "parallel", "reduction"]} ins(%results, %results_2 : memref<16x16xf16, 2>, memref<16x16xf16, 2>) outs(%results_4 : memref<16x16xf32, 2>) {
            ^bb0(%in: f16, %in_9: f16, %out: f32):
              %11 = arith.extf %in : f16 to f32
              %12 = arith.extf %in_9 : f16 to f32
              %13 = arith.mulf %11, %12 : f32
              %14 = arith.addf %out, %13 : f32
              linalg.yield %14 : f32
            }
          }
          %10 = air.channel.put async [%async_token_5]  @channel_3[%arg10, %arg11] (%results_4[] [] []) : (memref<16x16xf32, 2>)
          %async_token_6 = air.execute [%async_token_5] {
            memref.dealloc %results : memref<16x16xf16, 2>
          }
          %async_token_7 = air.execute [%async_token_5] {
            memref.dealloc %results_2 : memref<16x16xf16, 2>
          }
          %async_token_8 = air.execute [%10] {
            memref.dealloc %results_4 : memref<16x16xf32, 2>
          }
        }
      }
    }
    return
  }
}

